HW2/PartIII/cs885a2p3_starter_code/trained_models/cqldqn_cartpole.pth (torch, 272215 bytes, 6 tensors)

fc1.weight f4 [256, 4]
0	0x401575f3	2.335324
1	0x3f197ab4	0.59952855
2	0x416e0e3f	14.878478
3	0x40231b05	2.5485241
4	0xc19240eb	-18.281698
5	0xbf64ff5f	-0.89452165
6	0xc1af8a21	-21.942446
7	0x3f4a2cb6	0.78974473
8	0x40124800	2.2856445
9	0x3f75a341	0.9595223
10	0x417838a1	15.513825
11	0x40005547	2.005205
12	0x4029fa36	2.6558967
13	0x3e92c579	0.28666285
14	0x4148c6b8	12.548515
15	0x408febe5	4.4975457
16	0xc18dde12	-17.733433
17	0xbfad787c	-1.3552394
18	0xc1967472	-18.806858
19	0x3f02060d	0.5079048
20	0xc197120e	-18.883816
21	0xc00f5b62	-2.2399526
22	0xc19ed963	-19.856146
23	0x3eb38aaa	0.3506673
24	0xc18e72f0	-17.806122
25	0xbfb8aab9	-1.44271
26	0xc1997825	-19.183664
27	0x3ef404a8	0.47659802
28	0xc192c699	-18.346972
29	0xbf2934f4	-0.66096425
30	0xc1ab7ee8	-21.436966
31	0x3f58f627	0.847506
32	0x40229869	2.5405524
33	0x3f051b93	0.519952
34	0x416d11b1	14.816819
35	0x3fedbe10	1.8573627
36	0x4012090d	2.2818024
37	0x4028572c	2.6303205
38	0x4169126b	14.566997
39	0xbfea5b87	-1.8309182
40	0x4030fc96	2.7654166
41	0x3f510f7c	0.8166425
42	0x417d72c0	15.840515
43	0x3ff36a91	1.9016896
44	0xc18e7bf2	-17.81052
45	0xbfa73129	-1.3061877
46	0xc1a0a810	-20.082062
47	0x3f114dc1	0.5675927
48	0xc18d7393	-17.681433
49	0xc00666b9	-2.1000197
50	0xc1a2cfea	-20.35152
51	0x3eb73a11	0.3578649
52	0x40235869	2.5522711
53	0x3f8b772d	1.0895745
54	0x41828a3a	16.317493
55	0x402d666c	2.7093763
56	0xc1907fc0	-18.062378
57	0xc0104c32	-2.2546506
58	0xc18f05e9	-17.877886
59	0x3e9065d6	0.28202695
60	0x3fefe645	1.8742148
61	0x3f991787	1.1960305
62	0x4170ea6f	15.057235
63	0x40341ae1	2.8141406
64	0xc1939522	-18.447819
65	0xc0163d45	-2.3474896
66	0xc199d50c	-19.229027
67	0x3e963751	0.29339078
68	0x3fe378c6	1.7771232
69	0x3f09a4c0	0.53767014
70	0x4187b959	16.965502
71	0x3fb08313	1.3790001
72	0x4042803c	3.0390768
73	0x4015f208	2.3428974
74	0x40a22aaf	5.0677104
75	0xbff832a1	-1.9390451
76	0x40105d9b	2.2557132
77	0x3f949c53	1.1610206
78	0x4168e357	14.555503
79	0x400f46ed	2.238704
80	0x3fe7672d	1.8078362
81	0x3f00322b	0.5007655
82	0x41864e80	16.78833
83	0x3fb4d424	1.412724
84	0x401d5903	2.4585578
85	0x3f1fb77b	0.62389344
86	0x4169cf06	14.613043
87	0x4024b08a	2.573275
88	0x3ff439b4	1.908011
89	0x3fa50b5e	1.2894094
90	0x4178d48f	15.551894
91	0x3fdec501	1.7403871
92	0x400a9089	2.1650717
93	0x3f933abe	1.1502302
94	0x416f2d77	14.9486
95	0x3ff80a54	1.9378152
96	0x402d7407	2.7102067
97	0x40049a77	2.0719278
98	0x404d4e9f	3.2079237
99	0xbfe3d76e	-1.7800119
100	0x4029d134	2.6533937
101	0x3f770532	0.964923
102	0x41823de0	16.280212
103	0x402922a4	2.6427393
104	0xc19b8c45	-19.443491
105	0xc0311684	-2.7669992
106	0xc19a107d	-19.25805
107	0x3eb11f81	0.34594348
108	0x4044e4b7	3.0764596
109	0x401cf43d	2.4524071
110	0x40a2b630	5.0847397
111	0xbff914be	-1.9459455
112	0x40229409	2.5402853
113	0x3f066d45	0.5251048
114	0x4171a9b1	15.103929
115	0x401978eb	2.3980052
116	0x403f7e6b	2.992091
117	0x4016bab7	2.3551462
118	0x408408e4	4.1260853
119	0xbff904a0	-1.9454536
120	0x3fdc53ae	1.7213037
121	0x3f94f6e6	1.1637847
122	0x4182074a	16.25356
123	0x3fcef7d1	1.6169378
124	0x401b4871	2.4262965
125	0x3ee8aba2	0.45443445
126	0x416580db	14.343959
127	0x3ff10d57	1.8832196
128	0x4021faf2	2.5309415
129	0x3fb8d13a	1.4438851
130	0x416f707c	14.964962
131	0x400cfc1a	2.202887
132	0x40458366	3.086145
133	0x401c7876	2.4448524
134	0x40ac7971	5.3898244
135	0xbffaa00e	-1.9580095
136	0x40487b21	3.1325152
137	0x4014f46b	2.327418
138	0x4096bde2	4.710679
139	0xc001630b	-2.02167
140	0x3ff6c059	1.927745
141	0x3f702895	0.93811923
142	0x416b2cde	14.698454
143	0x40112c3f	2.2683256
144	0x4016341c	2.3469305
145	0x3f607a52	0.87686646
146	0x41775cdd	15.460172
147	0x4009775b	2.1479099
148	0x4022f082	2.5459294
149	0x3fb36117	1.4014004
150	0x4170da06	15.053228
151	0x40247208	2.56946
152	0xc190ee92	-18.11649
153	0xc01b7942	-2.429276
154	0xc19f23ae	-19.892422
155	0x3e8deafd	0.27718344
156	0x3ff22618	1.8917875
157	0x3f2598d6	0.64686334
158	0x41855d46	16.670544
159	0x3fcc85ed	1.5978371
160	0xc1913490	-18.150665
161	0xbfb1436e	-1.3848703
162	0xc19cb2ee	-19.587368
163	0x3f05cb8e	0.52263725
164	0xc1916041	-18.171999
165	0xbfb77bb9	-1.4334632
166	0xc1a0fd39	-20.123644
167	0x3f08bb4b	0.53410786
168	0xc192dd2f	-18.358
169	0xbf8a74eb	-1.081693
170	0xc1aea9b6	-21.832867
171	0x3f3b0767	0.7305817
172	0x4034077f	2.8129575
173	0x4020e524	2.5139856
174	0x40a526c6	5.160983
175	0xbfd785f0	-1.683775
176	0x4045b30c	3.0890532
177	0x401b158f	2.4231908
178	0x4099dee1	4.808457
179	0xbffb045a	-1.9610703
180	0xc18f0845	-17.879038
181	0xbf6e7d45	-0.93159896
182	0xc1ad4a7d	-21.661371
183	0x3f42ab8b	0.76043004
184	0x3fc3ba07	1.5291146
185	0x3fcda3c6	1.6065605
186	0x41760a27	15.377479
187	0x3facac57	1.3490094
188	0x4008d9be	2.13829
189	0x3f33c317	0.7021956
190	0x417563b6	15.3368435
191	0x3feca01c	1.8486362
192	0xc192c3dc	-18.345634
193	0xc0015341	-2.0207064
194	0xc197723b	-18.930777
195	0x3ea5b956	0.32367963
196	0x403e7481	2.9758608
197	0x4015a96c	2.3384657
198	0x40a40260	5.12529
199	0xbff24644	-1.8927693
200	0xc1283413	-10.512713
201	0xc08033d8	-4.0063286
202	0xc153bde9	-13.233865
203	0xbfce2d01	-1.6107484
204	0x4045d8b5	3.0913517
205	0x4015793a	2.335524
206	0x40a02310	5.00428
207	0xbffdb9f7	-1.9822377
208	0x4035a934	2.8384523
209	0x401957e9	2.3959906
210	0x40a05091	5.009835
211	0xbfe062e7	-1.7530183
212	0x3fd52a23	1.6653484
213	0x3fa69f35	1.3017336
214	0x4176f332	15.434374
215	0x4023b3fa	2.55786
216	0x4024733c	2.5695333
217	0x3f11e0b0	0.5698347
218	0x416e0867	14.877051
219	0x407464df	3.8186567
220	0x3fcb0016	1.5859401
221	0x3fd94b39	1.6976081
222	0x4170582a	15.021524
223	0x3fad8a03	1.3557743
224	0x401b52c7	2.4269273
225	0x3f199a36	0.6000093
226	0x4170294f	15.010085
227	0x401b46a4	2.4261866
228	0x402113a1	2.516823
229	0x3fd0c7b4	1.6310945
230	0x41764d01	15.3938
231	0x3fecc5de	1.8497884
232	0x4032cd05	2.7937634
233	0x3f77e6b0	0.96836376
234	0x4172a644	15.165592
235	0x400261cb	2.0372188
236	0x3fc875ed	1.5660988
237	0x3fb39fc5	1.4033133
238	0x4180d981	16.106203
239	0x3fb81532	1.4381468
240	0x3fd5b13b	1.6694711
241	0x3f92dc73	1.1473526
242	0x4178c6ac	15.548504
243	0x3fdbce27	1.7172288
244	0x3f95cbc6	1.1702812
245	0x3fdb4e36	1.7133243
246	0x41699507	14.598884
247	0xbec33c73	-0.38132057
248	0xc1939511	-18.447786
249	0xbfbadf64	-1.4599423
250	0xc1a03b58	-20.028976
251	0x3f064e93	0.52463645
252	0x403f8126	2.9922576
253	0x40198a70	2.3990746
254	0x40a0e90b	5.0284476
255	0xbff22367	-1.8917054

fc1.bias f4 [256]
0	0x414d3f1b	12.827907
1	0x3ecc3938	0.39887404
2	0x414d1c84	12.819462
3	0x412227bb	10.1347
4	0x3b824ef3	0.0039766966
5	0xbeb55e62	-0.3542357
6	0x3c816aca	0.015797991
7	0x3ed1bc27	0.4096386
8	0x4151c346	13.110174
9	0x414064ce	12.0246105
10	0x41516405	13.086919
11	0x3e3b5821	0.18295337
12	0x3c4538f0	0.012037501
13	0x414bf66b	12.747661
14	0xbf1ee4ed	-0.62068063
15	0x414f2798	12.947166
16	0xbedb0be8	-0.4278252
17	0x414873fd	12.528317
18	0xc07f7bde	-3.9919353
19	0x41540b3e	13.252745
20	0x4147a599	12.477929
21	0x415209be	13.127378
22	0x415002ce	13.000685
23	0x414e7db1	12.905686
24	0xc0619cfd	-3.5252068
25	0x414b6d5e	12.714201
26	0xbf54adce	-0.83077705
27	0xc082ccd0	-4.0875015
28	0x41543e35	13.265187
29	0xc07c5a59	-3.9430144
30	0x414dc14c	12.859692
31	0x414a8a1a	12.658716
32	0x4151f1c6	13.121527
33	0xc082f58d	-4.0924745
34	0xc08256c5	-4.073092
35	0x4152752b	13.153605
36	0x414f045e	12.938566
37	0x41528f8e	13.160048
38	0xbe7db1d1	-0.24774863
39	0x41480705	12.501714
40	0x3d30a0de	0.043122165
41	0x3ddb987e	0.10722445
42	0x3eafd7ee	0.3434443
43	0xc07a30e8	-3.909235
44	0xc082a61c	-4.082777
45	0x3ecf05b8	0.4043405
46	0x414ff755	12.997884
47	0x4152f4f9	13.184808
48	0xbea4bc38	-0.3217485
49	0xc07b697f	-3.928314
50	0xbfa49be4	-1.2860074
51	0xc0814923	-4.040178
52	0xc075fe47	-3.8436449
53	0x41540f7a	13.253778
54	0x4143f634	12.247608
55	0x414cee9a	12.808252
56	0x4153e222	13.242708
57	0x4150f0cb	13.058787
58	0x41539dba	13.226007
59	0x414f33c0	12.950134
60	0x4151836a	13.0945835
61	0x4145656b	12.33726
62	0x3d393407	0.045215633
63	0xc07e8959	-3.977133
64	0xc080ffa1	-4.0312047
65	0x4155d910	13.365494
66	0x4150522b	13.020061
67	0x414e6009	12.898446
68	0xc081a69e	-4.051589
69	0x3e15b0b4	0.14618188
70	0x4152cdeb	13.175273
71	0x3ebad114	0.3648764
72	0x3d9a9cfe	0.07549475
73	0xc077807e	-3.8672175
74	0xbb4ab0cd	-0.0030928135
75	0x41484088	12.515755
76	0x414f58ac	12.959148
77	0x414d88dd	12.845914
78	0xbf8a69a6	-1.0813491
79	0x414a6d88	12.651741
80	0xbe6e8ffd	-0.23297115
81	0x4151bf00	13.109131
82	0x414c6da5	12.776769
83	0x4150627b	13.024043
84	0x41531b4c	13.194164
85	0x3ec57d61	0.3857222
86	0xbecc2ec3	-0.39879426
87	0x41488999	12.533593
88	0x3debe1ee	0.11517702
89	0x4148a723	12.540805
90	0x4145ea86	12.369757
91	0x4154a6f7	13.290763
92	0x3e294938	0.16531837
93	0xbec6c0d6	-0.38818997
94	0x3e75680e	0.23965475
95	0x4145d2cf	12.363967
96	0x415046fb	13.017329
97	0x4152d4ca	13.17695
98	0x41521452	13.129961
99	0x4151b6c5	13.107121
100	0x41487681	12.528932
101	0xbf27cbb4	-0.655452
102	0xc0728048	-3.7890797
103	0x414d8317	12.844504
104	0x3e07620f	0.13221
105	0x41512674	13.071888
106	0x4151b0f9	13.105706
107	0x4152f5ab	13.184978
108	0xc07f4fd4	-3.9892473
109	0x4153dd26	13.241491
110	0x3ea72573	0.3264576
111	0xc06e6eec	-3.7255201
112	0x4153229f	13.195952
113	0x4152eb53	13.182452
114	0xbf598d08	-0.8498082
115	0x41508afc	13.033932
116	0xc07cd84e	-3.9507022
117	0x4151d596	13.114645
118	0x41565a77	13.397086
119	0x3d21010b	0.039307635
120	0x414d62b1	12.836595
121	0x414574d8	12.341026
122	0xc08070d1	-4.0137715
123	0xc066ef75	-3.6083653
124	0x414ada9d	12.678372
125	0xbf87eb7d	-1.061874
126	0xbfad083a	-1.3518136
127	0x414ef56b	12.9349165
128	0xbe0ec71a	-0.13943139
129	0x3e25464d	0.16140099
130	0x414773fc	12.4658165
131	0x4124e9c8	10.3070755
132	0x41539310	13.223404
133	0xc07d142b	-3.954356
134	0xc071a6a6	-3.7757964
135	0xc05d9162	-3.4619985
136	0x3ea7d0a5	0.3277637
137	0x414e60ff	12.898681
138	0x41525f88	13.148323
139	0xc06a6803	-3.6625984
140	0xbf122541	-0.57088095
141	0x4153cf01	13.238038
142	0xbebccd20	-0.36875248
143	0x41469990	12.412491
144	0xbed3ceb9	-0.41368654
145	0xc082f6ef	-4.0926433
146	0x4149e537	12.618461
147	0xc08095f4	-4.018305
148	0x41500971	13.002305
149	0x4144e9c1	12.307069
150	0x414bfbd2	12.74898
151	0x3d8b4849	0.06800897
152	0x414e2cc5	12.88593
153	0x4153b3d4	13.231403
154	0xc077b5b2	-3.8704648
155	0xbe998a65	-0.299884
156	0xc086d18f	-4.213081
157	0x4154142a	13.254923
158	0x414f629d	12.9615755
159	0x414fc36f	12.985213
160	0x4149387e	12.576292
161	0x41529f82	13.163942
162	0x3ecff82a	0.40619022
163	0x41491cba	12.569513
164	0x4151c842	13.111391
165	0x414dc5fe	12.860838
166	0x4152e7d5	13.1816
167	0x41487e21	12.530793
168	0x3ecf64a3	0.40506467
169	0xbf8b43ac	-1.0880027
170	0x41515c49	13.085031
171	0x415202c2	13.125673
172	0x4147a516	12.477804
173	0xbf006b23	-0.5016348
174	0x41491b35	12.569142
175	0x3ec61d24	0.38694108
176	0x414e1350	12.879715
177	0x41537a3e	13.217344
178	0x4150e76c	13.0564995
179	0x414ccd1a	12.800074
180	0x4151ff88	13.124886
181	0xc083a7a1	-4.1142125
182	0x3e75009e	0.23926017
183	0x414adc7b	12.678828
184	0xc0672191	-3.6114237
185	0xbf780f7a	-0.96898615
186	0x415217d3	13.130816
187	0x414d3e9e	12.827787
188	0x41204d00	10.018799
189	0x4145f5ac	12.3724785
190	0x41497ee6	12.593481
191	0x4150e235	13.055226
192	0x4153ec99	13.245263
193	0xbe11a144	-0.14221674
194	0x414fb544	12.981754
195	0x3e4c9adc	0.19980949
196	0xbecee73b	-0.4041079
197	0xc082642c	-4.074728
198	0xc0749bab	-3.8220012
199	0x4151068b	13.064097
200	0x414e5841	12.896546
201	0x3eae115c	0.3399762
202	0xbe624a42	-0.2209864
203	0x4149a630	12.603073
204	0xc082ac37	-4.0835223
205	0x41424752	12.142412
206	0x4151b225	13.105992
207	0x41519bc8	13.100533
208	0x4151b618	13.1069565
209	0x413bc7d3	11.736285
210	0x4151bd68	13.108742
211	0x3e0b098b	0.13577859
212	0xc071097d	-3.766204
213	0x3ec670be	0.3875789
214	0xbf2b961a	-0.6702591
215	0x4144d461	12.30185
216	0x414e1afb	12.881587
217	0xc07e4207	-3.97278
218	0x414f5673	12.958606
219	0x3e0a1dab	0.1348788
220	0x3e3c5dc1	0.1839514
221	0x4137c626	11.485876
222	0x41520cad	13.128095
223	0x4151c261	13.109956
224	0x4133161b	11.192897
225	0xbedd4c0e	-0.43222088
226	0x41533e74	13.202747
227	0x3ecd7c39	0.40133837
228	0x41539be9	13.225564
229	0xc0833237	-4.0998797
230	0x414eb07e	12.918089
231	0x41519c68	13.100685
232	0xc07c83c0	-3.9455414
233	0x4144f4cb	12.309764
234	0x41524ab9	13.143243
235	0x414fd702	12.989992
236	0x4151d91e	13.115507
237	0x414c41d4	12.766071
238	0xc07e0253	-3.9688919
239	0xc085149c	-4.158766
240	0x41541864	13.255955
241	0xc0823899	-4.069409
242	0x4153b149	13.2307825
243	0x4151fd04	13.124271
244	0x3e467268	0.1937958
245	0x4143a5ab	12.227946
246	0x3eb4e117	0.3532798
247	0x3e66d405	0.22541817
248	0x41505698	13.021141
249	0x4150af51	13.042802
250	0xbfb89edd	-1.4423481
251	0xc076cbee	-3.8561969
252	0x3dd62220	0.104557276
253	0xc0851ed6	-4.160014
254	0x4150b7c3	13.044864
255	0xbf021307	-0.50810283

fc2.weight f4 [256, 256]
0	0x413ae95e	11.681974
1	0xc1b0966f	-22.073454
2	0x413b483d	11.705136
3	0x412fbc67	10.983497
4	0xc1a4c0a0	-20.594055
5	0xc1af64a7	-21.924147
6	0xc1a954e0	-21.166443
7	0xc1aaeda5	-21.366037
8	0x4138287d	11.509885
9	0x41066dd7	8.401816
10	0x4130d96b	11.053081
11	0xc1ac3ab9	-21.528673
12	0xc1acb09a	-21.586231
13	0x412ee6b5	10.931325
14	0xc1a974c6	-21.182018
15	0x414108a1	12.064607
16	0xc1b2e942	-22.363895
17	0x415337c6	13.201117
18	0xc0d66d64	-6.7008533
19	0x4136c0b0	11.422043
20	0x415233ac	13.137615
21	0x4138175f	11.505706
22	0x413fce70	11.9879
23	0x41377ea0	11.468414
24	0xc0bc8e0e	-5.8923407
25	0x412ce89a	10.8067875
26	0xc1b06515	-22.049356
27	0xc0d5015c	-6.656416
28	0x4138f002	11.558596
29	0xc0b54bcc	-5.6655025
30	0x414afded	12.686994
31	0x41382441	11.508851
32	0x412b66ec	10.712627
33	0xc0c23f37	-6.0702167
34	0xc0cf95db	-6.487043
35	0x4143041a	12.188501
36	0x413a5e54	11.648029
37	0x412ceb1f	10.807403
38	0xc1ad1257	-21.633955
39	0x41518820	13.095734
40	0xc1ab9aae	-21.450527
41	0xc1af0df4	-21.881813
42	0xc1abe339	-21.485949
43	0xc0d86c59	-6.763226
44	0xc0d5419d	-6.6642594
45	0xc1b0a78e	-22.081814
46	0x41423328	12.137489
47	0x41418a4a	12.096262
48	0xc1b18592	-22.19022
49	0xc0c06dae	-6.0133886
50	0xc1903296	-18.0247
51	0xc0d7dbf7	-6.745601
52	0xc0d6007b	-6.6875587
53	0x41478822	12.470736
54	0x412cd6c0	10.802429
55	0x413cdde3	11.804172
56	0x413b4faa	11.706949
57	0x4126ea97	10.432273
58	0x412c005e	10.75009
59	0x4149d660	12.614838
60	0x4148e7f7	12.556632
61	0x41399996	11.599997
62	0xc1b08cef	-22.068815
63	0xc0cfef28	-6.497944
64	0xc0cbbb3e	-6.3666067
65	0x4127ddd3	10.491656
66	0x413dbc6c	11.858501
67	0x412e78b7	10.904471
68	0xc0c7eac7	-6.2474093
69	0xc1a4c37a	-20.595448
70	0x413ed43e	11.926817
71	0xc1aac9b3	-21.348486
72	0xc1adc96c	-21.72335
73	0xc0b2d579	-5.5885587
74	0xc1aea907	-21.832533
75	0x414e0d33	12.878222
76	0x413c29d5	11.760213
77	0x4129e6c2	10.618837
78	0xc1ae7bac	-21.810387
79	0x4132391c	11.138943
80	0xc1b25e5d	-22.296076
81	0x4139d13a	11.613581
82	0x414854c3	12.520694
83	0x4139d3f4	11.614246
84	0x4145270e	12.322035
85	0xc1a85a52	-21.044102
86	0xc1a94530	-21.158783
87	0x415226fe	13.13452
88	0xc1a4e6ad	-20.612635
89	0x411ecdef	9.925277
90	0x4151d00e	13.113295
91	0x41357ed8	11.343468
92	0xc1a5f25d	-20.743341
93	0xc1aa1b8c	-21.26345
94	0xc1ae5589	-21.791765
95	0x41551ac4	13.319035
96	0x4147100b	12.441417
97	0x41419145	12.097966
98	0x413f7bbf	11.967711
99	0x412ee2ee	10.930403
100	0x4137376f	11.451034
101	0xc1afe01b	-21.984426
102	0xc0c468e4	-6.137804
103	0x413de94e	11.869459
104	0xc1aa0e1f	-21.256895
105	0x41402208	12.008308
106	0x41355f43	11.335757
107	0x413bbbbc	11.733334
108	0xc0c8f915	-6.2804055
109	0x413a3b62	11.639498
110	0xc1acc355	-21.595377
111	0xc0ddb497	-6.9282947
112	0x4141b65b	12.10702
113	0x412eed4d	10.932935
114	0xc1b0fa05	-22.12208
115	0x413f7c65	11.96787
116	0xc0d3621b	-6.605726
117	0x41401d59	12.007165
118	0x41288a06	10.533697
119	0xc1ae5c26	-21.794994
120	0x413cbaad	11.795575
121	0x412a0cfe	10.628172
122	0xc0d26785	-6.5751367
123	0xc0be8209	-5.9533734
124	0x4134a7e0	11.290985
125	0xc1aac7de	-21.347591
126	0xc18ce2f2	-17.610813
127	0x41351a16	11.318869
128	0xc1b1c114	-22.219276
129	0xc1aa0ce6	-21.256298
130	0x41524bcb	13.143504
131	0x4124bc72	10.296007
132	0x4142f6c3	12.185245
133	0xc0c6fe46	-6.218539
134	0xc0b51e79	-5.65997
135	0xc0c464de	-6.137313
136	0xc1a9c885	-21.22291
137	0x414550fd	12.332273
138	0x4138e736	11.556448
139	0xc0c77ff2	-6.2343683
140	0xc1ab9196	-21.446087
141	0x4136e04b	11.429759
142	0x3c485efe	0.012229679
143	0x41512c4d	13.073316
144	0x3b9a39e9	0.0047066105
145	0xc0d3b07d	-6.615294
146	0x413a0313	11.625751
147	0xc0d3f341	-6.623444
148	0x413303e6	11.188452
149	0x4136a970	11.416367
150	0x41301cde	11.007048
151	0xc1a56c21	-20.677797
152	0x4147798b	12.467174
153	0x41400b1b	12.002711
154	0xc0c91dbe	-6.2848806
155	0xc1a6c4aa	-20.846027
156	0xc0d37f89	-6.6093183
157	0x413d678e	11.837782
158	0x413e9fcd	11.914014
159	0x413dfaed	11.873761
160	0x413aff93	11.687396
161	0x412dc29c	10.860012
162	0xc1ae0cba	-21.756214
163	0x414f2873	12.947375
164	0x413d4f7a	11.831903
165	0x41442141	12.258119
166	0x4137f9e0	11.498505
167	0x41536454	13.211994
168	0xc1aff7ae	-21.995937
169	0xc1a9fc4e	-21.248196
170	0x412a73f3	10.653308
171	0x41416e67	12.089454
172	0x41543016	13.26174
173	0xc1ad8663	-21.690619
174	0x4135fa7c	11.373653
175	0xc1aa251b	-21.268118
176	0x413e1dd0	11.882278
177	0x4136c9e2	11.424288
178	0x4130790d	11.029553
179	0x4144bc6d	12.296002
180	0x412bcd8c	10.737682
181	0xc0d33bb6	-6.601039
182	0xc1a553b2	-20.665867
183	0x4139bbdd	11.608365
184	0xc0cdca49	-6.430943
185	0xc1aa04e5	-21.25239
186	0x414729d1	12.447709
187	0x4137d67b	11.489863
188	0x4126267b	10.384395
189	0x412250a8	10.144691
190	0x4152ee87	13.183234
191	0x413e7cec	11.9054985
192	0x413b5ebb	11.710628
193	0xc1b05a4e	-22.044094
194	0x413dda30	11.865768
195	0xc1a52128	-20.64119
196	0xc1b01312	-22.009312
197	0xc0cf21aa	-6.4728594
198	0xc0d71e81	-6.7224736
199	0x41387d4c	11.53059
200	0x412dce01	10.862794
201	0xc1a92b57	-21.146162
202	0xc1af11c2	-21.88367
203	0x41319d33	11.100879
204	0xc0c362a9	-6.1057935
205	0x4116e1d1	9.430131
206	0x413d62f3	11.836658
207	0x414061fd	12.023923
208	0x4143f890	12.248184
209	0x4129fc63	10.624118
210	0x4138c536	11.548147
211	0xc1a8ef91	-21.116976
212	0xc0bad58d	-5.838568
213	0xc1ad13af	-21.634611
214	0xc1b06754	-22.050453
215	0x412ce8d0	10.806839
216	0x41382c7b	11.5108595
217	0xc0d8b5b4	-6.7721806
218	0x413862c6	11.524115
219	0xc1a6e97d	-20.864008
220	0xc1a69da9	-20.826982
221	0x412c3418	10.762718
222	0x413d280b	11.822276
223	0x412cd979	10.803094
224	0x41352fbf	11.324157
225	0xc1abd2d0	-21.477936
226	0x4137e672	11.493761
227	0xc1afb02c	-21.961021
228	0x412bd3c3	10.7392
229	0xc0d0bff6	-6.5234327
230	0x41367633	11.403857
231	0x413fa43d	11.977597
232	0xc0b616d3	-5.690286
233	0x412a561b	10.646022
234	0x413bb765	11.732274
235	0x41444194	12.26601
236	0x412f4010	10.95314
237	0x41483b93	12.5145445
238	0xc0be9f69	-5.9569592
239	0xc0c4a3cc	-6.1449947
240	0x41449d29	12.288369
241	0xc0b914ef	-5.7838054
242	0x4136d4b3	11.4269285
243	0x4146aae3	12.41672
244	0xc1a42b41	-20.52112
245	0x413718cf	11.443557
246	0xc1ab6ad4	-21.427162
247	0xc1a9a101	-21.203615
248	0x41396aac	11.588543
249	0x413d82a9	11.844399
250	0xc188b4cd	-17.088282
251	0xc0c6ef54	-6.216715
252	0xc1a40af9	-20.505358
253	0xc0d05e26	-6.5114927
254	0x413f148c	11.942516
255	0xc1ac075b	-21.503592

fc2.bias f4 [256]
0	0x4146ea3b	12.432185
1	0x3f725bcd	0.94671327
2	0xb8f84084	-0.000118375785
3	0x4146f76b	12.435405
4	0x3d257517	0.04039487
5	0xbc56ee2d	-0.013118309
6	0xbd259150	-0.040421784
7	0x4144b10f	12.293227
8	0xbcb93d1c	-0.022612147
9	0xbfa108fd	-1.2580868
10	0xbb7122db	-0.0036794457
11	0xbd23f69c	-0.040030107
12	0x4145e27e	12.367796
13	0x41460f7a	12.378778
14	0x3c316678	0.010827653
15	0x41474acd	12.455762
16	0x41470f6a	12.441263
17	0x4144c5b7	12.29827
18	0xbf9ca1cd	-1.2236878
19	0x41468449	12.407296
20	0x4145cb4f	12.362136
21	0x41461dde	12.382292
22	0xbd88ad53	-0.06673684
23	0x41468de1	12.409638
24	0xbb471f00	-0.0030383468
25	0x4146e134	12.429981
26	0x3c4ab19f	0.01237145
27	0x4146df13	12.4294615
28	0x3d529129	0.051407967
29	0x41468dc0	12.409607
30	0x3d01f205	0.03172495
31	0x41454b54	12.330891
32	0x4146c66d	12.423444
33	0x414c1c9f	12.756988
34	0xbd9a8374	-0.07544604
35	0x3d09ae10	0.033613265
36	0xbcbd8c67	-0.023138238
37	0xbca7b3ee	-0.02047154
38	0x412f5836	10.959036
39	0x41456775	12.337758
40	0x3e60ba55	0.2194608
41	0xbc16b268	-0.009197809
42	0x4145aa25	12.354039
43	0x4146fe0d	12.437024
44	0x4146a3a0	12.4149475
45	0x41466180	12.398804
46	0xbc181482	-0.009282233
47	0xbca3d4f4	-0.019999005
48	0x41469569	12.411477
49	0x41470435	12.438527
50	0x41451027	12.316443
51	0x4143f4de	12.247282
52	0x4145bf43	12.359195
53	0xbcdb152a	-0.02674349
54	0xbd4c39c0	-0.049859762
55	0xbd15b017	-0.036544885
56	0x414bf23e	12.746641
57	0x3d3e2845	0.046425123
58	0x41455332	12.332811
59	0x4145bc3d	12.358457
60	0xbcb8900b	-0.022529623
61	0x414410d5	12.254109
62	0x4142e604	12.181156
63	0x4146210d	12.383069
64	0x41463ff9	12.390618
65	0x4147dc7c	12.491329
66	0x4146ce19	12.425317
67	0x41462e1b	12.386256
68	0x41465932	12.396776
69	0x3d0c3323	0.034228455
70	0x4146c6c2	12.423525
71	0x4146c190	12.422256
72	0xbce19eae	-0.027541485
73	0xbd3a884a	-0.04554013
74	0x41458168	12.344093
75	0xbcb1086d	-0.021610463
76	0x41465701	12.396241
77	0xbd39002b	-0.045166176
78	0x4146ee46	12.433172
79	0x4146bc03	12.420901
80	0xbd834eed	-0.06411538
81	0x413dcd11	11.862565
82	0x41469591	12.411515
83	0x3f5eef6f	0.87084097
84	0x3c8bd4f6	0.017069321
85	0x41459b21	12.350373
86	0x4145073d	12.314267
87	0x41469a82	12.412722
88	0x41459fbe	12.3515
89	0xbca2a180	-0.0198524
90	0xbf907bc8	-1.1287775
91	0xbd1d9273	-0.038469743
92	0x4146d793	12.42763
93	0x4148dc0b	12.553721
94	0x3d28952f	0.041157898
95	0x3d0f62b4	0.03500624
96	0xbcfb6390	-0.030687124
97	0x4141be59	12.108972
98	0x41470f93	12.441302
99	0x3bd84d24	0.0066009928
100	0x414603cb	12.375926
101	0xbc77e1de	-0.0151295345
102	0x41457594	12.341206
103	0xbc9ce1a3	-0.01915056
104	0x413a4cca	11.643747
105	0x41471e9f	12.444976
106	0xbecaa732	-0.39580685
107	0x41466846	12.400457
108	0x414530ff	12.324462
109	0xbf342ffa	-0.70385706
110	0xbcc62f6e	-0.024192538
111	0xbf6a87f2	-0.91613686
112	0x41457549	12.341134
113	0x414736e0	12.450897
114	0x414548cd	12.330274
115	0x3d187fb8	0.037231177
116	0x41465276	12.395132
117	0x41442d4f	12.261062
118	0x41465931	12.396775
119	0x414bd273	12.738879
120	0x4146d6e0	12.42746
121	0x41455008	12.332039
122	0x41479cb8	12.475761
123	0xbd858f95	-0.06521527
124	0x4145cafa	12.362055
125	0xbb8aaf20	-0.0042323023
126	0x41451e52	12.319902
127	0x414429a2	12.260164
128	0x4145a434	12.352589
129	0x4142f373	12.184436
130	0xbcbaaa1a	-0.022786189
131	0x4146044c	12.376049
132	0x4147126c	12.441998
133	0x3e1ec11e	0.15503356
134	0x4146f827	12.435584
135	0xbc800a8b	-0.015630027
136	0x41454f71	12.331895
137	0xbd5d192c	-0.053979084
138	0xbd593559	-0.053029392
139	0xbc567591	-0.013089553
140	0x41470713	12.439227
141	0x3e766b6d	0.24064417
142	0x3f8805f8	1.0626822
143	0x3c429063	0.011875245
144	0x41466736	12.400198
145	0xbc99eddf	-0.018790184
146	0x41471b06	12.4440975
147	0x3cae4521	0.021273198
148	0xbc8514cf	-0.016245274
149	0xbf3e2384	-0.7427294
150	0xbd31e894	-0.043434694
151	0xbeb43ab1	-0.35201028
152	0x412e21e8	10.883278
153	0x4148d236	12.551321
154	0x41460216	12.375509
155	0x41459184	12.348026
156	0xbfb1128e	-1.3833787
157	0xbc32fc02	-0.010924341
158	0x4144b045	12.293035
159	0x4146a0e3	12.414279
160	0xbd164a18	-0.036691755
161	0x3d13c140	0.03607297
162	0x4146e882	12.431765
163	0x41455fa6	12.335852
164	0x414c09ff	12.75244
165	0x4145d070	12.363388
166	0x4146e1e3	12.430148
167	0x4145e32a	12.36796
168	0xbf98a881	-1.1926423
169	0xbd34e160	-0.044160247
170	0xbf8ef12b	-1.1167349
171	0x3cc0f159	0.023552584
172	0x3d6af7b8	0.05736515
173	0x3c470125	0.012146269
174	0x4145b463	12.35654
175	0x4147033a	12.438288
176	0x414622a6	12.383459
177	0x41464e38	12.394096
178	0x414643a0	12.39151
179	0xbd597b1d	-0.053095926
180	0x41454493	12.329242
181	0x4145f8f8	12.373283
182	0x3f4ee53e	0.80818546
183	0x4147ce4a	12.487864
184	0xbab86132	-0.0014067052
185	0xbc97f507	-0.018549455
186	0xbc736ce2	-0.014857503
187	0x4145795a	12.342127
188	0xbf747dd0	-0.95504475
189	0x3cef616d	0.02922126
190	0xbc47fe4f	-0.012206628
191	0x4146064e	12.376539
192	0xbc18a842	-0.00931746
193	0x3a91013e	0.0011062992
194	0x414611f5	12.379384
195	0x4146141f	12.379912
196	0xbbe9ed73	-0.007138902
197	0x3d7a2760	0.061072707
198	0x414605ff	12.376464
199	0x41468bd5	12.409139
200	0x414890c2	12.535341
201	0x4146bb57	12.420737
202	0x41469489	12.411263
203	0x412cd09c	10.80093
204	0x4145a321	12.352326
205	0xbd58e203	-0.052949917
206	0x41452547	12.321601
207	0x4146861c	12.407742
208	0x414b5af0	12.709702
209	0xbd28104d	-0.04103117
210	0xbf816753	-1.0109657
211	0xbf943ebe	-1.1581647
212	0x414648f5	12.392812
213	0x40e2a415	7.0825295
214	0x4145b558	12.356773
215	0x412c6d74	10.776722
216	0x41460e71	12.378526
217	0xbf95637e	-1.1670988
218	0x4146cb4b	12.424632
219	0xbd2e7cb8	-0.04259941
220	0x412efbe3	10.936496
221	0xbd56c720	-0.052435994
222	0xbd469f02	-0.048491485
223	0xbbcea118	-0.006305825
224	0x41455ea7	12.3356085
225	0x4144c33e	12.297667
226	0x3ab5f3e0	0.0013881885
227	0x414503c1	12.3134165
228	0x414770c7	12.465034
229	0x41452676	12.32189
230	0x41478c2b	12.471721
231	0x4145eeeb	12.37083
232	0x3c620672	0.013795482
233	0x4145e492	12.368303
234	0x3c35261d	0.01105645
235	0x41460a49	12.377511
236	0xbd6d69e1	-0.057962302
237	0x4146de6d	12.429303
238	0x40b3ae9e	5.6150656
239	0x414716bb	12.443049
240	0xbd007e88	-0.03137067
241	0x3f70a394	0.939996
242	0x3b2a916d	0.0026026622
243	0x3d64c463	0.05585135
244	0x413e222e	11.883345
245	0x3d6820f0	0.056672037
246	0x3f692ce4	0.9108412
247	0x3e0433db	0.12910406
248	0x4145fc83	12.374148
249	0x4146be2c	12.421429
250	0x414655e9	12.395974
251	0x4145decc	12.366894
252	0x3e7a83d8	0.24464357
253	0x4145686a	12.337992
254	0x41455b5c	12.334805
255	0xbf57c674	-0.8428719

fc3.weight f4 [2, 256]
0	0x41431397	12.192283
1	0xc0d5906c	-6.6738796
2	0xbd4bcac1	-0.049753908
3	0x41492448	12.571358
4	0xbc7f4cb9	-0.015582257
5	0xbc798356	-0.015229067
6	0x3d327314	0.04356678
7	0x4147103c	12.441463
8	0xbbc302c0	-0.0059512556
9	0x41769983	15.412478
10	0xbd1c068a	-0.038092174
11	0x3d7d33d8	0.06181702
12	0x4144ea1b	12.307155
13	0x414214da	12.130091
14	0x3c19b330	0.009381101
15	0x41418af2	12.096422
16	0x4147de3b	12.4917555
17	0x41483828	12.51371
18	0x418f94fb	17.947744
19	0x4148876a	12.53306
20	0x414a27fa	12.63476
21	0x41447f28	12.281044
22	0xbaf9f83d	-0.0019071173
23	0x4141ce01	12.112794
24	0x3d155dfa	0.036466576
25	0x41494228	12.578651
26	0x3d7b45f8	0.061346024
27	0x414a42f6	12.641348
28	0x3ba2cd16	0.004968296
29	0x4149acba	12.60467
30	0xbbf6cbd0	-0.0075316206
31	0x41481378	12.504753
32	0x4141fede	12.124723
33	0x41380f33	11.503711
34	0x3c14110a	0.009037266
35	0xbcb9b8f6	-0.022671204
36	0xbcf982a9	-0.030457811
37	0x3caf2860	0.021381557
38	0x4130e405	11.055669
39	0x41430903	12.1897
40	0xc0dd941e	-6.9243307
41	0x3b86a3c4	0.004108878
42	0x4148cf5c	12.550625
43	0x41415ed2	12.0856495
44	0x4149a6cf	12.603225
45	0x414164eb	12.087138
46	0xbc9c2e4c	-0.019065045
47	0xbccd1f71	-0.025039406
48	0x414a78b1	12.654466
49	0x414314cb	12.192576
50	0x41494e15	12.581563
51	0x41582f54	13.511555
52	0x4145352d	12.325482
53	0xbc65dd4d	-0.014029813
54	0xbcf55afa	-0.029950608
55	0x3ba682dc	0.0050815176
56	0x4138b451	11.544023
57	0xbd03f492	-0.032215662
58	0x4149ec2a	12.620157
59	0x4146faf4	12.436268
60	0xbd074c6f	-0.033031877
61	0x41496b27	12.58866
62	0x41569ee5	13.413793
63	0x414aae52	12.667559
64	0x41415e80	12.085571
65	0x413f3477	11.950309
66	0x4142be8f	12.171523
67	0x414852d4	12.520222
68	0x41490039	12.562554
69	0x3c0b80a8	0.008514561
70	0x4140d529	12.052041
71	0x41410a74	12.065052
72	0xbcf6655e	-0.030077633
73	0xbd12767a	-0.03575752
74	0x414a8318	12.657005
75	0xbd15586f	-0.03646129
76	0x414971a5	12.590245
77	0x3ce42751	0.027850779
78	0x414b34aa	12.700357
79	0x414981e9	12.594216
80	0x3d092877	0.033485856
81	0x41512213	13.070819
82	0x41411799	12.068261
83	0xc0e67fac	-7.203085
84	0xbd020bed	-0.031749655
85	0x4147d8ac	12.490398
86	0x414a9d33	12.663379
87	0x4141bf01	12.109132
88	0x4149b709	12.607186
89	0xbd067bb5	-0.03283282
90	0x417f55b9	15.958428
91	0xbbe6c808	-0.0070428886
92	0x4141decb	12.116893
93	0x413d5c25	11.834996
94	0x3cbf65a5	0.023363898
95	0xbc72a775	-0.014810433
96	0xbce3ced4	-0.027808584
97	0x41483d72	12.515001
98	0x4141717c	12.090206
99	0xbb89fa09	-0.0042107147
100	0x41498e62	12.597261
101	0xbd17fc68	-0.037105948
102	0x4141ee34	12.120655
103	0x3d3c06be	0.045904867
104	0x417dd7c1	15.865174
105	0x41418ec2	12.097353
106	0xbf76b2df	-0.96366686
107	0x414967dc	12.587856
108	0x41475534	12.458302
109	0xbfd2ad37	-1.6459111
110	0x3c8f952f	0.017527191
111	0xc012795d	-2.2886574
112	0x4149c68d	12.610974
113	0x41486cfc	12.5266075
114	0x4147696a	12.463236
115	0xbd30cecd	-0.04316597
116	0x4141da10	12.115738
117	0x4148f7f9	12.56054
118	0x41494334	12.578907
119	0x41393d10	11.577408
120	0x414932b4	12.574879
121	0x4148bd74	12.546253
122	0x413fe44a	11.993235
123	0xbd1202c3	-0.035647165
124	0x414120fe	12.070555
125	0x3d60dddc	0.05489908
126	0x41484e98	12.519188
127	0x41497585	12.591191
128	0x41472fae	12.449141
129	0x4149845b	12.594813
130	0xbc3c9551	-0.011510209
131	0x4149782d	12.59184
132	0x41486341	12.524232
133	0xc0db9255	-6.861613
134	0x4149e771	12.619004
135	0x3c0c84a2	0.008576544
136	0x414396ec	12.224346
137	0xbd54ae72	-0.051924177
138	0x3d390216	0.045168005
139	0xbc674f1e	-0.014117984
140	0x41493fa5	12.578038
141	0xc0d8e138	-6.7774925
142	0xc0f40a3a	-7.6262484
143	0xbd05ac3b	-0.032634955
144	0x414844f8	12.516838
145	0xbbd1cf37	-0.0064028758
146	0x4148f0f2	12.558825
147	0x3b9b5716	0.004740606
148	0xbd475e82	-0.048674114
149	0xc0910204	-4.531496
150	0xbc2d03f3	-0.010560024
151	0xc1048ee0	-8.284882
152	0x41313c7c	11.077267
153	0x413dff5d	11.874845
154	0x41495594	12.583393
155	0x4143b545	12.231755
156	0x4172c705	15.173589
157	0x3d5f16ea	0.054465212
158	0x414a2976	12.635122
159	0x41494ada	12.580774
160	0xbce07bd6	-0.0274028
161	0x3c602ea8	0.013682999
162	0x41456eab	12.339519
163	0x4148895b	12.533534
164	0x4132e2e7	11.180396
165	0x414902d2	12.563189
166	0x414339ab	12.201579
167	0x4147b294	12.481098
168	0x417b5945	15.709294
169	0x3ce88a99	0.028386401
170	0x40d4aacd	6.6458497
171	0xbcaca6b3	-0.021075582
172	0xbd1b806e	-0.037964277
173	0xbd32d6dd	-0.04366194
174	0x4148e050	12.554764
175	0x4149a092	12.601702
176	0x4140d868	12.052834
177	0x4142b2dc	12.168667
178	0x41443a05	12.264165
179	0x3cfe1592	0.031016145
180	0x4148c05c	12.546963
181	0x414950d3	12.582232
182	0xc093c19d	-4.6173844
183	0x41411199	12.066796
184	0xbc4bc9ae	-0.012438221
185	0xbd576762	-0.052588828
186	0xbbccbe11	-0.0062482436
187	0x4149c0fc	12.609615
188	0xc0a062f4	-5.0120792
189	0xbd2858cf	-0.04110032
190	0xbc86e32d	-0.016465748
191	0x41442b04	12.260502
192	0x3d566b8a	0.05234865
193	0x3b67d400	0.0035374165
194	0x414647b9	12.39251
195	0x414366df	12.212615
196	0xbcbfaf1d	-0.02339893
197	0x3c87bb48	0.016568795
198	0x41447d37	12.28057
199	0x414ac01e	12.671904
200	0x413dcae7	11.862037
201	0x41497e26	12.593298
202	0x4145a829	12.353555
203	0x41304907	11.017829
204	0x41498c66	12.596777
205	0x3cef0398	0.029176518
206	0x41498b55	12.596517
207	0x4148ef92	12.558489
208	0x4137e129	11.492471
209	0xbcf9aa7f	-0.030476807
210	0xc01d0467	-2.4533937
211	0xc04fcc3d	-3.2468407
212	0x4144cbd6	12.299765
213	0x410eede5	8.93308
214	0x414a5930	12.646774
215	0x412ffa4f	10.9986105
216	0x41494662	12.579683
217	0xc04cc021	-3.1992266
218	0x41440635	12.251515
219	0x3d00193d	0.03127407
220	0x4130bdea	11.046366
221	0x3c17eaff	0.009272336
222	0xbc5cb5ef	-0.013471111
223	0xbd4c5f8b	-0.049895804
224	0x414382c9	12.21943
225	0x4145eba2	12.370028
226	0x3d645064	0.05574073
227	0x4148c176	12.547232
228	0x41417373	12.090686
229	0x4149df9a	12.61709
230	0x41484557	12.516929
231	0x4148a9da	12.541468
232	0xbd454195	-0.048158247
233	0x41496dba	12.589289
234	0xbbb42858	-0.0054979734
235	0x414986cf	12.595412
236	0xbd4c8910	-0.0499354
237	0x4149acda	12.6047
238	0x3fec84bd	1.8478009
239	0x41423417	12.137717
240	0xbd0aba86	-0.03386929
241	0xc0ed8526	-7.4225035
242	0xbbc56fe3	-0.006025301
243	0xbcb4a7c0	-0.022052646
244	0x412cf24d	10.809155
245	0xbd3b6bce	-0.045757107
246	0xc0d9d460	-6.8071747
247	0xc0e118b4	-7.0342655
248	0x41441166	12.254248
249	0x41493a37	12.576713
250	0x4147d55c	12.48959
251	0x4149995f	12.599944
252	0xc0da7774	-6.8270817
253	0x41438a48	12.22126
254	0x414380f5	12.218984
255	0xc09bd3bd	-4.869597

fc3.bias f4 [2]
0	0x4123c12a	10.234659
1	0x411c8405	9.782231
